…
    "model.add(MaxPooling2D((2, 2)))\n",
    "model.add(Flatten())\n",
    "model.add(Dense(32, activation='relu'))\n",
    "model.add(Dropout(0.2))\n",
    "model.add(Dense(7, activation='softmax'))"
   ]
  },
  {
   "cell_type": "code",
   "execution_count": 7,
   "metadata": {},
   "outputs": [
    {
     "name": "stdout",
     "output_type": "stream",
     "text": [
      "_________________________________________________________________\n",
      "Layer (type)                 Output Shape              Param #   \n",
      "=================================================================\n",
      "conv2d_1 (Conv2D)            (None, 148, 148, 16)      160       \n",
      "_________________________________________________________________\n",
      "max_pooling2d_1 (MaxPooling2 (None, 74, 74, 16)        0         \n",
      "_________________________________________________________________\n",
      "conv2d_2 (Conv2D)            (None, 72, 72, 32)        4640      \n",
      "_________________________________________________________________\n",
      "max_pooling2d_2 (MaxPooling2 (None, 36, 36, 32)        0         \n",
      "_________________________________________________________________\n",
      "conv2d_3 (Conv2D)            (None, 34, 34, 64)        18496     \n",
      "_________________________________________________________________\n",
      "max_pooling2d_3 (MaxPooling2 (None, 17, 17, 64)        0         \n",
      "_________________________________________________________________\n",
      "conv2d_4 (Conv2D)            (None, 15, 15, 128)       73856     \n",
      "_________________________________________________________________\n",
      "max_pooling2d_4 (MaxPooling2 (None, 7, 7, 128)         0         \n",
      "_________________________________________________________________\n",
      "flatten_1 (Flatten)          (None, 6272)              0         \n",
      "_________________________________________________________________\n",
      "dense_1 (Dense)              (None, 32)                200736    \n",
      "_________________________________________________________________\n",
      "dropout_1 (Dropout)          (None, 32)                0         \n",
      "_________________________________________________________________\n",
      "dense_2 (Dense)              (None, 7)                 231       \n",
      "=================================================================\n",
      "Total params: 298,119\n",
      "Trainable params: 298,119\n",
      "Non-trainable params: 0\n",
      "_________________________________________________________________\n"
     ]
    }
   ],
   "source": [
    "model.summary()"
   ]
  },
  {
   "cell_type": "code",
   "execution_count": 8,
   "metadata": {},
…
